model/soft_update_checkpoint.pth (torch_old, 19618 bytes, 6 tensors)

fc1.weight f4 [64, 37]
00000000: e08b 2cbe cc21 183e fd58 f3bc 408a b43e
00000010: 05a9 f8be 56c3 9ebd 7780 4abe 8e26 4dbe
00000020: af2e db3c cd16 a5be 03d3 4fbe b338 8039
00000030: 3abe 14be b9c0 903e b133 f13e 3062 7d3c
00000040: 6753 4b3e 0ad2 e63d d003 3fbe dce7 a23d
00000050: 8c83 873d 4d3b 193e 400c 76be 3b87 5fbe
00000060: 7ff0 d53c 56cb 56be 12b1 6e3e d11e 5abe
00000070: 11f8 79be 3103 543d 227a debe 9d86 833e
00000080: 495c 1ebe 63a1 ca3e e6a4 013f 3dc6 67ba
00000090: 3742 be3c f48f ad3e 8a1a 77be b64b 0abd
000000a0: 4781 18bf 1ec3 5ebf 07f0 0dbf e3d4 853d
000000b0: 77be c93e b2c4 fd3c e941 313e 6920 10bc
000000c0: 78f2 8dbd 7323 c0be 12d3 86be 05ef 8a3e
000000d0: f728 ddbe bc35 27bb 5cc6 173e 5364 2dbe
000000e0: 7953 a4bf d844 18bf f173 343e cd26 1dbf
000000f0: 375c ffbd 3e06 973e ba9d db3d 6342 efbc
00000100: 1ce9 0ebd f6b9 c1be 29fe 60c0 032a 97bd
00000110: d3ab db3d 4b5c 01be 8c21 93be 0eec 84be
00000120: 0f90 9b3e aac2 2bbe 4875 a5bd ba4e 84be
00000130: 1205 51be 3dcf 25bd 039f 933d 3565 523d
00000140: d2c7 50bd 3d98 673e 82f3 813d e4aa 113f
00000150: a379 76be 18f4 113f 9cac 0c3d 9910 e8bd
00000160: 2a03 723e 56c8 373d 166d e6bc a080 6cbd
00000170: c29f d93d 7818 d03d 0429 b33e 3c66 62bd
00000180: 549f c23c 2755 4cbe a4e4 b5be ab36 28bd
00000190: 55a7 d1bd acd9 c33d c1eb 7ebe a125 ac3d
000001a0: 1d9a 8f3e 9a78 703d 62eb 16bf 77c9 623d
000001b0: ef87 48bd 7b6f 02be 92e6 8c3c 8653 973e
000001c0: 92cd 4cbe 1099 163e cb82 d2be 83e6 b03e
000001d0: 606f cbbd e020 dfbd 5b7c 5bbf 3562 fabd
000001e0: 3325 0abf 9e37 643e 268f 61bf 1485 26bf
000001f0: 8d67 8abe da25 03bf c95c 18be 8d32 d83c
00000200: a430 cabd 3e39 a5bf dde9 b2bf 576b 3f3e
00000210: 5416 19be 1fea 2d3e 04b6 25bf 994e 27bf
00000220: 3b78 7d3e 48bf 6bbf c9d3 1dbf cd95 a8be
00000230: 3fc8 09c0 2658 0fbe d9a1 963e 0d36 6dbf
00000240: 9987 d2bd d8d4 573e c735 fa3d 9175 55bc
00000250: a570 b9be 6110 123e 2522 813e 1700 99be
00000260: 50c1 88be 23ea 70bf 721b c03e 25ea 673e
00000270: 3541 633e 5fb1 afbe 51dc ddbe 2b24 833e
00000280: 2035 573e ad1d fb3e b869 97bd 8302 273e
00000290: 8e19 09be b708 46bd bed6 3cbf a054 c5bc
000002a0: dd95 6f3e 33c1 edbb 74f1 843d 609f 10be
000002b0: cda7 1dbe 95d9 293f 8f2f a1bf 535d 0ebf
000002c0: 8722 c3be 4ccf ebbf 03b5 54be e31c aa3e
000002d0: 2abe 07bd 9ffa ec3d 58c7 ba3d 3310 eebc
000002e0: 02ef 55bc 9247 003f 499d f13d 609d 80be
000002f0: 049c c0be c452 39bf 9027 39bf 145e f93e
00000300: 6300 803e 75d5 bf3e 151b efbe ad6e 9ebd
00000310: 6eca 9ebe 4f01 f7be 8824 43be b6c4 8b3d
00000320: fe01 0e3e 08ca 67be 7218 733d d704 4bbf
00000330: f851 05bf 32b4 bebc e4a4 0fbf 16c3 693e
00000340: 8289 12bf fb27 44bf 38bc f43c af0e 28bf
00000350: 2e82 db3e 364f d7be bfad e0be a1f7 d0be
00000360: 6e7c e1be 591f e33e cc12 d7be d18e 22bf
00000370: ce86 1ebd 6eb9 87bd fdbf 303f 9b8d 04bf
00000380: 1029 5cbf 1ce0 83bf b494 64c0 77c5 54bd
00000390: e19f b4bc e139 383e 4f2e 5b3e fee8 593e
000003a0: 7c7a 023e a9c4 a4bd 39d8 33bd 27ec 7abd
000003b0: 340f 31be c097 74be be7a 043d 587a 243e
000003c0: a795 1a3e 8eed 883e 5eaf eebd 6d36 03be
000003d0: b823 a4bd b298 aa3d b79e d33d 3a78 10bd
000003e0: 912b 2dbd 555e 22be c9e2 db3d b4e7 753e
000003f0: 5ad8 1a3d 96ba 443c 1644 2b3e 38f8 243e
-0.16850233 0.14856642 -0.029705519 0.35261726 -0.48566452 -0.07752101 -0.19775568 -0.20034239
0.026755659 -0.32243958 -0.20295338 0.00024456307 -0.1452569 0.28272036 0.4710975 0.015465304
0.19856034 0.112705305 -0.18653798 0.0795438 0.066168875 0.14964028 -0.2402811 -0.2182893
0.026115654 -0.20976004 0.23309734 -0.21300818 -0.24411036 0.051760856 -0.43452555 0.2568864
-0.15464891 0.39576253 0.5064224 -0.00088414905 0.023224933 0.3389889 -0.24131218 -0.03376361
-0.5957226 -0.87016475 -0.5544438 0.065347455 0.39403126 0.03097758 0.17310299 -0.00879679
-0.06931013 -0.37527046 -0.2633291 0.27135482 -0.43195316 -0.0025514206 0.14821762 -0.16932802
-1.2837974 -0.5948005 0.17622353 -0.6138733 -0.124687605 0.2949695 0.10723443 -0.02920646
-0.03489028 -0.3783719 -3.5155127 -0.0738106 0.10726132 -0.12632863 -0.28736532 -0.25961345
0.30383345 -0.16773477 -0.0807901 -0.25841314 -0.2041209 -0.04048084 0.072080635 0.05136605
-0.050971813 0.22616668 0.063452736 0.56901383 -0.24069838 0.5701308 0.0343443 -0.11331291
0.2363402 0.04486879 -0.028128188 -0.057739854 0.106261745 0.10160917 0.3499223 -0.05527328
0.023757614 -0.19954358 -0.35526 -0.04106776 -0.10236994 0.09563002 -0.2489462 0.08405615
0.28047267 0.058708765 -0.58952916 0.055367913 -0.04895776 -0.12737839 0.017199788 0.2955591
-0.20000294 0.14706826 -0.41115412 0.34550866 -0.099333525 -0.10894942 -0.85736626 -0.12225763
-0.5396301 0.22286841 -0.8810905 -0.6504681 -0.27032128 -0.5122963 -0.14879145 0.026391292
-0.09872559 -1.2908094 -1.397762 0.1869329 -0.14949924 0.16983841 -0.6473086 -0.65354306
0.24752896 -0.9208875 -0.61651284 -0.3292679 -2.152847 -0.1399847 0.29420355 -0.926606
-0.102797695 0.21077287 0.122172885 -0.013028518 -0.36218753 0.1426406 0.25221363 -0.2988288
-0.26709986 -0.94107264 0.3752094 0.22647913 0.22192843 -0.3431501 -0.4333215 0.2561353
0.2101636 0.49046078 -0.07393211 0.16309552 -0.13388655 -0.048348155 -0.7376517 -0.024088204
0.23397012 -0.007255697 0.06491366 -0.14123297 -0.15396042 0.6634763 -1.2592639 -0.5561115
-0.3811228 -1.8422637 -0.20772175 0.33225164 -0.03314034 0.1157124 0.09120053 -0.029060459
-0.013057472 0.5010921 0.11797578 -0.25120068 -0.3761903 -0.72391915 -0.7232599 0.48704588
0.25000295 0.37467542 -0.4670035 -0.077359535 -0.31013817 -0.48243186 -0.19056904 0.06824629
0.13867947 -0.22635663 0.059349485 -0.7930426 -0.520782 -0.023279283 -0.5611098 0.22828326
-0.5724107 -0.76623505 0.029874906 -0.65647405 0.42872757 -0.4205262 -0.43882558 -0.40813926
-0.44040245 0.44359854 -0.42006528 -0.6349917 -0.03870278 -0.06627165 0.6904295 -0.5177857
-0.86000156 -1.0302768 -3.571576 -0.05194613 -0.022048892 0.17990829 0.21404384 0.21280286
0.12742037 -0.080453224 -0.043907378 -0.06126037 -0.17290956 -0.23886013 0.03234362 0.16062295
0.1509615 0.2674374 -0.116545424 -0.1281373 -0.08014625 0.083299056 0.10333007 -0.035270907
-0.042277876 -0.15856297 0.10736615 0.24014169 0.037803985 0.012007376 0.16725191 0.16110313

fc1.bias f4 [64]
00000000: ec05 32be 980f 73be 4772 e0bc c03f 40be
00000010: 7588 5dbd d929 aebd f35b 4fbe a5f1 cd3d
00000020: 5308 9fbe 1f58 32be 269a 16be 0002 7abd
00000030: 833a 493e aebd e33b 1926 5ebe 5e09 f6bd
00000040: 1a49 02bf f6ff 82be 8883 c8be f2d3 5f3d
00000050: beaa 84be d8ad 0bbe 8709 f4be 080e b4be
00000060: 73d5 2f3d 4890 1bbe 5d94 bbbd 78d3 57bd
00000070: 98c2 d93c dc09 b83d c74e 303d 927f cdbe
00000080: bdc1 ebbd fec5 50be c29e a1be 3fbb 18be
00000090: c899 b73e 16eb b8be bf12 51be 6fff c03e
000000a0: 2a01 b6be ef4f 8bbe e695 e7bd 8eb2 77bd
000000b0: a3ae 08bf e6de 5cbe 594d adbd 1dbe 57be
000000c0: 2716 adbe 594c 97be 985e 83bd a227 dd3c
000000d0: 5585 c93d 3a6a 85bd f18c c6be bcd6 c7bd
000000e0: 45da 9bbe 4761 94be 5173 05be 90f6 f63e
000000f0: 220f 61bd 9ad8 c6bd 8eb3 2abe f837 a4be
-0.17385072 -0.23736417 -0.027398242 -0.18774319 -0.054085214 -0.085040756 -0.2024992 0.10055856
-0.31061038 -0.17416428 -0.1470724 -0.061037064 0.19651227 0.006950102 -0.2169422 -0.120135054
-0.50892794 -0.25585908 -0.3916285 0.054645486 -0.25911516 -0.13640535 -0.4766352 -0.35166955
0.04292817 -0.15191758 -0.091591574 -0.052691907 0.026582047 0.089862555 0.043043878 -0.4013639
-0.11511562 -0.20388028 -0.31566435 -0.14915179 0.35859513 -0.36116856 -0.20417307 0.3769488
-0.35547763 -0.27209422 -0.11307888 -0.060473017 -0.53391474 -0.21569404 -0.084620185 -0.21068616
-0.33805963 -0.29550436 -0.06414527 0.026996437 0.09839884 -0.06514402 -0.38779405 -0.09757754
-0.30439964 -0.28980467 -0.13032271 0.48234987 -0.054946072 -0.09709282 -0.16670057 -0.3207395

fc2.weight f4 [32, 64]
00000000: 5092 283d 7997 14bd e07d f63d c075 b0be
00000010: 98f6 7dbd 07e9 9ebd 5a16 a63e 80fc 0a3d
00000020: 17a6 e93c 71dd fabd 1695 3bbe 424d bbbb
00000030: d2ec 083e 3897 b3bc edc5 113d 133f b8bd
00000040: 2376 aabd 5910 843d 67ce 9bbe 3d02 8ebc
00000050: 41c0 233e a8f2 4a3e 47f3 0bbf 5353 dfbd
00000060: 5b6a 30bd 700c 553e 4410 8bbd d39c 8ebe
00000070: d5b9 ee3d f858 483c 5714 80be 0901 dbbe
00000080: d639 ae3c 2db1 9f3d a2c2 5a3d f604 17be
00000090: f7ec 59bd 8078 55bb a647 963d 979d 29be
000000a0: f29d 673e e036 21be 1973 0ebf bc77 4e3e
000000b0: 4aba 5fbd 70db 223e 6834 86bd c77d d33e
000000c0: 43ef aabd 33b5 033d 1937 d3be 5abe f0be
000000d0: 1f60 81bd 57d6 233d 3295 c03e 539b 02bd
000000e0: e32e 173e 0a18 3e3d e6bd 66be f6e6 48be
000000f0: c38d 66be c8b6 83ba 433f 3bbe 7e3a 27be
00000100: 42f4 d4bf 1c48 6bbe 8a6e 03be 3209 d0bd
00000110: 969c 57bf 9177 82bc b138 c4be 1688 0dbf
00000120: 780e 71bf 21e6 f7bd 2323 4fbf 19b0 45be
00000130: 2529 77be 63f3 983e 933b acbf 330d b13e
00000140: 67fa 8e3d 76ab d5bf e2f2 51bf 2693 b5bf
00000150: 2167 443e e805 1dbf 818e 83be c9fa dbbe
00000160: ffdd 7c3e 3d60 5ebe 6eee 3abc 2b1d 4fbf
00000170: 268f a3bd c463 30bf 60a0 97bf 5140 6dbd
00000180: 187a 22bf 708f 333d 2550 91bf dfed 2dbf
00000190: e9c1 a8bb 4ba0 67bf 5503 03be 97dc 80bd
000001a0: e7f9 37bf 4ce8 563e 8f51 64bf 71a0 8d3c
000001b0: 016c 85be 9355 a63d 1b64 823d aba8 c8bd
000001c0: 1ebc 623e 600f cfbd cce5 b5bf 9cbd 19bf
000001d0: 5e50 d4be 3b79 cabe 3b8d 1d3e 3648 3a3e
000001e0: 17c9 b93e 045b e33c 87ed 39bc d185 02be
000001f0: 7e20 9bbf c167 62bf 0436 acbe 3853 1c3e
00000200: d211 34be 2338 f63c adca 6cbe b013 243d
00000210: bd96 133f d178 6ebf 0075 c8be 06b7 0f3e
00000220: 5e76 b9bd 9d53 1ebf 310d 44bf d7ab d2bd
00000230: 119f 183d 84c5 083c 8bef 4abd f0bd e43d
00000240: 8ce0 a23e 71f3 1bba 94ac 5cbe 9aea 6dbe
00000250: c5fb 9bbe c410 93bf 8be5 d33e 93b5 dfbe
00000260: c525 b73d d036 84be 4f24 883e 3117 193f
00000270: 6a01 49bf 38c8 243d 4d7e 163f 8561 2abf
00000280: 86a7 58bd 9fa5 acbe 5b02 3d3d 89cb abbe
00000290: e9ad c63d a6fc 47bf 3446 03be 1d42 d63d
000002a0: 64bd d1bd 9dbc d63e 2576 92be 28ef cdbe
000002b0: 9925 84be 9fab d4be 1bad c4bd b6f1 b53d
000002c0: 058e b73e 7c1e 4d3e 763c 9cbc e210 2e3d
000002d0: 54af 463d 828a 513e 1eae 213f 0466 d7be
000002e0: e4de 943e 9060 4e3e 3481 96be 65f5 83bd
000002f0: 00d2 fb3e ea9f a2bd d7d8 27bd b550 26bf
00000300: 01a1 0d3e e443 6ebf 81c2 abbd 4625 aa3e
00000310: efb3 593e 534e b53d f510 86bd cd47 e53e
00000320: cceb 603e 9b9e 64be db96 923e b84d 75bf
00000330: 3640 68bf e3f4 963e d630 91bd 1628 31be
00000340: a554 2cbd fb76 9bbd e2e1 5fbd b36b efbe
00000350: 4b3f 38be 8ee7 8e3d 0f6d 503e 9b5f e43d
00000360: df4b 4b3d 20be bd3d 7dfc 163f 6b05 9abe
00000370: 483d 3e3f ec6d ab3d 89b0 b33d 04ba e9be
00000380: b7a6 3cbe fbd5 38be 94a5 0abf 18c7 9fbd
00000390: 0d9c 87be de8e 80bf a883 8ebf d274 84be
000003a0: 1ea5 c0be a8ce 7c3e db1e 34bf a658 99be
000003b0: b90a 8cbf 75d4 6ebe 2958 fc3e d8c5 5bbf
000003c0: e6ad 3ebc d521 14be 81aa a4bd e72d c6be
000003d0: b161 5dbd 3d1c 9c3e 6933 b53e 021d 11be
000003e0: 2c9f 9fbe 57ad 5ebe 325a a5bc b16e 8cbe
000003f0: b6d2 93be 9070 96be e825 af3e f023 9dbe
0.04115516 -0.036277268 0.120357275 -0.34464836 -0.06200275 -0.0775929 0.32438928 0.03393221
0.02852158 -0.12249268 -0.1831859 -0.005715997 0.1337159 -0.021922693 0.035589147 -0.089964055
-0.08323314 0.064484306 -0.3043091 -0.017335052 0.15991308 0.19819129 -0.54668087 -0.10904565
-0.04307018 0.20805526 -0.06790212 -0.27854022 0.116565384 0.012228243 -0.25015518 -0.42774227
0.021267813 0.077974655 0.053408273 -0.14747986 -0.053204503 -0.0032573044 0.073378846 -0.16564022
0.22618845 -0.1574359 -0.55644375 0.20162863 -0.05462102 0.15904021 -0.065529644 0.41306898
-0.08346417 0.032155227 -0.41252974 -0.47020227 -0.06317162 0.039999332 0.37613827 -0.03188641
0.1476398 0.046409644 -0.22533378 -0.19619355 -0.22515015 -0.001004898 -0.18285851 -0.16330907
-1.6637042 -0.22976726 -0.12835136 -0.10158004 -0.84223306 -0.015926154 -0.38324502 -0.55285776
-0.941627 -0.121044405 -0.8091299 -0.19305457 -0.24136789 0.2987319 -1.3455681 0.34580383
0.06981354 -1.6692951 -0.82011235 -1.4185531 0.19179966 -0.6133714 -0.2569466 -0.4296477
0.2469406 -0.217164 -0.011409385 -0.8090388 -0.07986288 -0.6890223 -1.1845818 -0.057922665
-0.6346755 0.043837965 -1.1352583 -0.6794109 -0.005150069 -0.9047896 -0.1279424 -0.06292074
-0.71865696 0.20987052 -0.8918695 0.017288418 -0.26058963 0.08121791 0.0636675 -0.09797796
0.22142074 -0.101103544 -1.4210753 -0.60054946 -0.41467565 -0.39545617 0.15385906 0.18191609
0.36286232 0.02775336 -0.011348135 -0.1274636 -1.2119291 -0.88439566 -0.3363496 0.1526612
-0.17584923 0.030056065 -0.2312419 0.040057838 0.57651883 -0.931531 -0.39151764 0.14034662
-0.0905578 -0.61846334 -0.7658263 -0.10286682 0.037261073 0.008347873 -0.049544852 0.1116904
0.3181194 -0.00059490564 -0.21550208 -0.23234025 -0.30465522 -1.1489491 0.41386065 -0.43693218
0.08942751 -0.2582307 0.265902 0.5980101 -0.7851778 0.040230006 0.5878647 -0.66555053
-0.052894138 -0.3372011 0.046144824 -0.33553723 0.097011395 -0.78119886 -0.12819749 0.10461829
-0.102412015 0.41940776 -0.28605762 -0.40221524 -0.25809935 -0.41537187 -0.0960333 0.08883993
0.3585054 0.2003116 -0.019071799 0.04249657 0.04850705 0.20462993 0.63156307 -0.4207002
0.29076302 0.20154023 -0.2939545 -0.0644329 0.49183655 -0.079406574 -0.04097828 -0.649669
0.1383095 -0.9307234 -0.08386708 0.33231562 0.21260045 0.0885283 -0.06546203 0.44781342
0.2196495 -0.22326128 0.2863072 -0.95821714 -0.9072298 0.2948371 -0.07089393 -0.17300448
-0.04207291 -0.07591053 -0.054658778 -0.46761855 -0.17992894 0.06977759 0.20354103 0.11151048
0.049632903 0.09264779 0.58979017 -0.3008226 0.7431226 0.08370575 0.08773906 -0.4564973
-0.18422972 -0.18050377 -0.541589 -0.07801646 -0.26486245 -1.00436 -1.1133928 -0.25870377
-0.37625974 0.24688208 -0.7035958 -0.29950446 -1.0940772 -0.23323233 0.4928601 -0.8584876
-0.01163814 -0.14466031 -0.080403335 -0.38706896 -0.054048244 0.30490294 0.35390785 -0.14171222
-0.31176126 -0.21745811 -0.02018461 -0.274282 -0.28871697 -0.29382753 0.34208608 -0.3069148

fc2.bias f4 [32]
00000000: c37f 5cbe 8ac8 33be cee4 763e 75c6 a2bd
00000010: e3a3 e1be 9a07 ecbd 4af4 103e bf34 e0be
00000020: ffc3 7ebe 3ae4 473e 01a0 96be b1c6 88be
00000030: 6587 00bf e415 d03e fea0 18be f43c 833c
00000040: 796d 6f3e b04c 80bd e411 933d 0510 75bd
00000050: b308 dabd a626 183f 67dc d83e 66be ad3e
00000060: 06f4 7dbe 6cd0 5fbe 7b78 89bd 8fbf cd3e
00000070: c4f9 fa3e 60e2 0fbe 7fee 053f 21a8 7f3e
-0.21533112 -0.17556968 0.2411072 -0.07948009 -0.44070348 -0.115248874 0.14155689 -0.43790242
-0.24879454 0.19520655 -0.29418948 -0.2671409 -0.50206596 0.406417 -0.14905164 0.016020276
0.23381604 -0.06264627 0.07181147 -0.05982973 -0.106461905 0.5943397 0.42355654 0.33934325
-0.24800119 -0.2185685 -0.06712433 0.4018521 0.4901868 -0.14051199 0.5231704 0.2496648

fc3.weight f4 [4, 32]
00000000: 9642 18be c061 19bf 4107 e73d 5909 4ebf
00000010: de33 3ebf e305 8d3d 6ab6 22bf 8b64 ffbe
00000020: e558 81bf 2a47 3bbd 085a a13d 9608 553e
00000030: 79bc 9bbe f4e5 603e bf4d 453c 7219 c33e
00000040: 6c6c 553d adca 863d 2a89 313e 07ac 753e
00000050: 3e63 723e 0ab5 fb3e d2c8 5c3e 3342 653e
00000060: 89b7 9d3e 615b 3b3d 4f56 acbe e4c2 3d3e
00000070: 9541 c43d f814 35bf cd99 eb3d bf04 123f
00000080: f05b 913d d29a 283e 17e7 313e 8ce3 18bf
00000090: 55c0 d7be 414d d1be 828a 693d 2d62 34bf
000000a0: e85e d33e 07ae 503c 9903 01bf 788a 88be
000000b0: 8acd 0a3f 090a 1a3e 8d19 6dbe bf18 d73e
000000c0: 235b 6abd 373f 5b3d f309 4c3e 4b66 4b3d
000000d0: 1307 93be 225c db3e 3077 cf3d b00f 3b3e
000000e0: f94b b2be f319 1ebf a087 9bbe 384a 8a3e
000000f0: 8f8f 743e 99f0 f13e 3576 313e b8d8 eb3e
00000100: 2dc9 273f b1e0 cbbd 5fb1 803e d1b8 8bbf
00000110: 8e8b b2be e2fd ffbe 4fa4 4c3f 87e3 1cbf
00000120: 8eab 2fbf 6268 823e 9aad 77be af7a debe
00000130: 5a0c f0bd ca35 313e 263d 603e 5ff1 8d3e
00000140: 464f aa3e 9b75 dfbe f777 033f 9286 5ebf
00000150: c357 ec3b 575c 393e ad7d 123d f065 793e
00000160: 23d4 723e 7d38 8b3e fd33 74bc 5505 c23e
00000170: 1b66 193e 2259 e63e 85f1 1f3e 5eed ab3e
00000180: 9525 5d3c 5108 3ebf c1f1 0b3f 9c90 c0be
00000190: 15f6 e03d 88bd 81bd 0594 94be 75cc eb3e
000001a0: fa23 1d3f c770 b33e aa46 83be d4fa 993e
000001b0: a1fa 2ebf df5e 2d3c 8689 873e 922c ec3e
000001c0: 6b0d 9bbe 9485 8abd 1b04 c4be 4374 f53e
000001d0: 1d4c 653c fdc5 133e 687a 843e 1c19 8abd
000001e0: e00d 8bbe 9bb4 a5bb d1e6 e9be 9334 a23e
000001f0: e36f 633e 9fe2 213f 981e f93e e8ca 80be
-0.1486915 -0.5991478 0.112806804 -0.80483013 -0.74297893 0.068858884 -0.6355959 -0.49881396
-1.0105253 -0.045722164 0.078785 0.20804057 -0.3041723 0.2196272 0.012042462 0.3810535
0.052105352 0.06581626 0.1733748 0.23991404 0.2367067 0.4916156 0.21560982 0.22388534
0.3080409 0.045741443 -0.33659598 0.18531376 0.09582821 -0.7073512 0.115039445 0.5703849
0.07097614 0.1646531 0.1737331 -0.5972221 -0.42138925 -0.40879253 0.057016857 -0.70462304
0.41283345 0.012736804 -0.50396115 -0.26668143 0.5421988 0.1504289 -0.23154278 0.42011067
-0.05721582 0.053527083 0.1992567 0.0496581 -0.28716335 0.4284373 0.10130155 0.18267703
-0.34823588 -0.61758345 -0.3037691 0.2700975 0.23882888 0.47253874 0.17330249 0.4606378
0.65541345 -0.09954966 0.25135323 -1.0915776 -0.34872097 -0.49998385 0.79938215 -0.6128468
-0.68621147 0.25470263 -0.24187317 -0.43452975 -0.11721106 0.17305675 0.21898326 0.27723214
0.33263606 -0.43644413 0.51354927 -0.8692409 0.0072126104 0.18101631 0.035764385 0.24355292
0.23713736 0.27191535 -0.014904973 0.37894693 0.14980356 0.44989878 0.15619476 0.33579534
0.01349773 -0.7423144 0.5466576 -0.37610328 0.109844364 -0.06334978 -0.2901918 0.46054426
0.6138302 0.3504698 -0.2563985 0.3007418 -0.6835118 0.010581701 0.2647211 0.46127754
-0.30283675 -0.06763759 -0.38284382 0.47940263 0.013995198 0.14430995 0.2587464 -0.067430705
-0.27159023 -0.0050569302 -0.4568391 0.31680736 0.2221065 0.6323642 0.48656154 -0.25154805

fc3.bias f4 [4]
00000000: d297 1c3f 02ad bc3e 0789 af3e ac2e a53e
0.6116916 0.36850744 0.3428423 0.3226217
